…
  下面我们来实验 LeNet 模型。实验中，我们仍然使用 Fashion-MNIST 作为训练数据集。                nn.Sigmoid(),
                nn.MaxPool2d(2, 2)
            )
            self.fc = nn.Sequential(
                nn.Linear(16*4*4, 120), 
                nn.Sigmoid(), 
                nn.Linear(120, 84), 
                nn.Sigmoid(), 
                nn.Linear(84, 10)
            )
        def forward(self, img):
            feature = self.conv(img)
            output = self.fc(feature.view(img.shape[0], -1))
            return output14
15
16
17
18
19
20
21
22
23
24
25
26
27
In [2]:
    net = LeNet()
    print(net)
Out [2]:
    LeNet(
      (conv): Sequential(
        (0): Conv2d(1, 6, kernel_size=(5, 5), stride=(1, 1))
        (1): Sigmoid()
        (2): MaxPool2d(kernel_size=2, stride=2, padding=0, 
                       dilation=1, ceil_mode=False)
        (3): Conv2d(6, 16, kernel_size=(5, 5), stride=(1, 1))
        (4): Sigmoid()
        (5): MaxPool2d(kernel_size=2, stride=2, padding=0, 
                       dilation=1, ceil_mode=False)
      )
      (fc): Sequential(
        (0): Linear(in_features=256, out_features=120, bias=True)
        (1): Sigmoid()
        (2): Linear(in_features=120, out_features=84, bias=True)
        (3): Sigmoid()
        (4): Linear(in_features=84, out_features=10, bias=True)
      )
    )1
2
3
4
5
6
7
8
9
10
11
12
13
14
15
16
17
18
19
20
21
22
23
In [3]:
    batch_size = 256
    train_iter, test_iter = d2l.load_data_fashion_mnist(
        batch_size=batch_size
    )1
2
3
4
5
109  因为卷积神经网络计算比多层感知机要复杂，建议使用 GPU 来加速计算。因此，我们对 2.6 节
（softmax 回归的从零开始实现）中描述的 evaluate_accuracy 函数略作修改，使其支持 GPU 计算。
  我们同样对 2.6 节中定义的 train_ch3 函数略作修改，确保计算使用的数据和模型同在内存或显存
…
                nn.Dropout(0.5), 
                nn.Linear(4096, 4096), 
                nn.ReLU(), 
                nn.Dropout(0.5), 
                # 输出层。由于这里使用Fashion-MNIST
                # 所以用类别数为10，而非论文中的1000
                nn.Linear(4096, 10)
            )
        def forward(self, img):
            feature = self.conv(img)
            output = self.fc(feature.view(img.shape[0], -1))
            return output6
7
8
9
10
11
12
13
14
15
16
17
18
19
20
21
22
23
24
25
26
27
28
29
30
31
32
33
34
35
36
37
38
39
40
41
42
43
In [2]:
    net = AlexNet()
    print(net)
Out [2]:
    AlexNet(
      (conv): Sequential(
        (0): Conv2d(1, 96, kernel_size=(11, 11), stride=(4, 4))
        (1): ReLU()
        (2): MaxPool2d(kernel_size=3, stride=2, padding=0, dilation=1, 
                       ceil_mode=False)
        (3): Conv2d(96, 256, kernel_size=(5, 5), stride=(1, 1), 
                    padding=(2, 2))
        (4): ReLU()
        (5): MaxPool2d(kernel_size=3, stride=2, padding=0, dilation=1, 
                       ceil_mode=False)
        (6): Conv2d(256, 384, kernel_size=(3, 3), stride=(1, 1), 1
2
3
4
5
6
7
8
9
10
11
12
13
14
15
16
1144.6.3  读取数据集  
  虽然论文中 AlexNet 使用 ImageNet 数据集，但因为 ImageNet 数据集训练时间较长，我们仍用前面
的Fashion-MNIST 数据集来演示 AlexNet 。读取数据的时候我们额外做了一步将图像高和宽扩大到
AlexNet 使用的图像高和宽 ——224 。这个可以通过 torchvision.transforms.Resize 实例来实现。也
就是说，我们在 ToTensor 实例前使用 Resize 实例，然后使用 Compose 实例来将这两个变换串联以方
便调用。                    padding=(1, 1))
        (7): ReLU()
        (8): Conv2d(384, 384, kernel_size=(3, 3), stride=(1, 1), 
                    padding=(1, 1))
        (9): ReLU()
        (10): Conv2d(384, 256, kernel_size=(3, 3), stride=(1, 1), 
                     padding=(1, 1))
        (11): ReLU()
        (12): MaxPool2d(kernel_size=3, stride=2, padding=0, dilation=1, 
                        ceil_mode=False)
      )
      (fc): Sequential(
        (0): Linear(in_features=6400, out_features=4096, bias=True)
        (1): ReLU()
        (2): Dropout(p=0.5)
        (3): Linear(in_features=4096, out_features=4096, bias=True)
        (4): ReLU()
        (5): Dropout(p=0.5)
        (6): Linear(in_features=4096, out_features=10, bias=True)
      )
    )17
18
19
20
21
22
23
24
25
26
27
28
29
30
31
32
33
34
35
36
37
In [3]:
def load_data_fashion_mnist(batch_size, resize=None):
    """
    function：
        将fashion mnist数据集划分为小批量样本
        
    Parameters:
        batch_size - 小批量样本的大小(int)
        resize - 对图像的维度进行扩大
    Returns:
        train_iter - 训练集样本划分为最小批的结果
        test_iter - 测试集样本划分为最小批的结果
…
        # (batch_size, 3, H, W)
        return process(PIL_img).unsqueeze(dim=0)
    def postprocess(img_tensor):
        inv_normalize = torchvision.transforms.Normalize(
            mean = -rgb_mean/rgb_std, 
            std = 1/rgb_std
        )
        to_PIL_image = torchvision.transforms.ToPILImage()
        return to_PIL_image(
            inv_normalize(img_tensor[0].cpu()).clamp(0, 1))8
9
10
11
12
13
14
15
16
17
18
19
20
In [5]:
    pretrained_net = torchvision.models.vgg19(
        pretrained=True, progress=True)1
2
3
In [6]:
    pretrained_net
Out [6]:
    VGG(
      (features): Sequential(
        (0): Conv2d(3, 64, kernel_size=(3, 3), 
                    stride=(1, 1), padding=(1, 1))
        (1): ReLU(inplace)
        (2): Conv2d(64, 64, kernel_size=(3, 3), 
                    stride=(1, 1), padding=(1, 1))
        (3): ReLU(inplace)
        (4): MaxPool2d(kernel_size=2, stride=2, 
                       padding=0, dilation=1, ceil_mode=False)
        (5): Conv2d(64, 128, kernel_size=(3, 3), 
                    stride=(1, 1), padding=(1, 1))
        (6): ReLU(inplace)
        (7): Conv2d(128, 128, kernel_size=(3, 3), 
                    stride=(1, 1), padding=(1, 1))
        (8): ReLU(inplace)
        (9): MaxPool2d(kernel_size=2, stride=2, 
                       padding=0, dilation=1, ceil_mode=False)1
2
3
4
5
6
7
8
9
10
11
12
13
14
15
16
17
18
19
20
21
271        (10): Conv2d(128, 256, kernel_size=(3, 3), 
                     stride=(1, 1), padding=(1, 1))
        (11): ReLU(inplace)
        (12): Conv2d(256, 256, kernel_size=(3, 3), 
                     stride=(1, 1), padding=(1, 1))
        (13): ReLU(inplace)
        (14): Conv2d(256, 256, kernel_size=(3, 3), 
                     stride=(1, 1), padding=(1, 1))
        (15): ReLU(inplace)
        (16): Conv2d(256, 256, kernel_size=(3, 3), 
                     stride=(1, 1), padding=(1, 1))
        (17): ReLU(inplace)
        (18): MaxPool2d(kernel_size=2, stride=2, 
                        padding=0, dilation=1, ceil_mode=False)
        (19): Conv2d(256, 512, kernel_size=(3, 3), 
                     stride=(1, 1), padding=(1, 1))
        (20): ReLU(inplace)
        (21): Conv2d(512, 512, kernel_size=(3, 3), 
                     stride=(1, 1), padding=(1, 1))
        (22): ReLU(inplace)
        (23): Conv2d(512, 512, kernel_size=(3, 3), 
                     stride=(1, 1), padding=(1, 1))
        (24): ReLU(inplace)
        (25): Conv2d(512, 512, kernel_size=(3, 3), 
                     stride=(1, 1), padding=(1, 1))
        (26): ReLU(inplace)
        (27): MaxPool2d(kernel_size=2, stride=2, 
                        padding=0, dilation=1, ceil_mode=False)
        (28): Conv2d(512, 512, kernel_size=(3, 3), 
                     stride=(1, 1), padding=(1, 1))
        (29): ReLU(inplace)
        (30): Conv2d(512, 512, kernel_size=(3, 3), 
                     stride=(1, 1), padding=(1, 1))
        (31): ReLU(inplace)
        (32): Conv2d(512, 512, kernel_size=(3, 3), 
                     stride=(1, 1), padding=(1, 1))
        (33): ReLU(inplace)
        (34): Conv2d(512, 512, kernel_size=(3, 3), 
                     stride=(1, 1), padding=(1, 1))
        (35): ReLU(inplace)
        (36): MaxPool2d(kernel_size=2, stride=2, 
                        padding=0, dilation=1, ceil_mode=False)
      )
      (avgpool): AdaptiveAvgPool2d(output_size=(7, 7))
      (classifier): Sequential(
        (0): Linear(in_features=25088, out_features=4096, bias=True)
        (1): ReLU(inplace)
        (2): Dropout(p=0.5)
        (3): Linear(in_features=4096, out_features=4096, bias=True)
        (4): ReLU(inplace)
        (5): Dropout(p=0.5)
        (6): Linear(in_features=4096, out_features=1000, bias=True)
      )
    )22
23
24
25
26
27
28
29
30
31
32
33
34
35
36
37
38
39
40
41
42
43
44
45
46
47
48
49
50
51
52
53
54
55
56
57
58
59
60
61
62
63
64
65
66
67
68
69
70
71
72
73
74
75
In [7]:
    style_layers, content_layers = [0, 5, 10, 19, 28], [25]1
2
272  在抽取特征时，我们只需要用到 VGG 从输入层到最靠近输出层的内容层或样式层之间的所有层。下
面构建一个新的网络 net ，它只保留需要用到的 VGG 的所有层。我们将使用 net 来抽取特征。
  给定输入 X ，如果简单调用前向计算 net(X) ，只能获得最后一层的输出。由于我们还需要中间层
…
